model.tflite (tflite, 98652 bytes, 8 tensors)

arith.constant f4 [64]
000000 9d 1f 5d bc c7 0a a7 bc 6e d6 22 bc 70 7b 3a bc
       -0.013496307 -0.020390881 -0.009938819 -0.011381969
000010 42 6c 06 3d 01 87 1d bd c2 13 ee bb d6 69 1a 3d
       0.032818086 -0.038458828 -0.007265539 0.03769859
000020 de f1 48 bc c6 7b 22 bc 11 ae f0 3b dd 50 af 3c
       -0.012264697 -0.009917205 0.007344969 0.021400863
000030 f5 4e da 3c 1b 41 4c bc 3b c8 ef 3c f1 39 da bb
       0.026648978 -0.012466694 0.029270282 -0.006659739
000040 e4 3d 09 3d c7 51 a8 bb 42 cc 26 3c bd a4 79 bc
       0.03350629 -0.0051367017 0.010180535 -0.015237031
000050 66 0e 30 bc 9a 16 a0 3c 08 a3 4b bc 77 fb f2 bb
       -0.01074562 0.019542027 -0.012429006 -0.007415231
000060 56 25 bc 3c 91 55 19 bc d6 96 97 3c 38 ff d3 3c
       0.022967022 -0.0093587795 0.018504541 0.025878534
000070 f5 38 0f 3b c8 4f d6 3c bc 8a b2 bb ac 5c eb bb
       0.0021854017 0.02616109 -0.0054486673 -0.007182678
000080 cf cb 58 3c 7a a1 b6 3c 8f 18 2c 3d 13 a4 a1 3c
       0.0132321855 0.022293795 0.04201561 0.019731557
000090 b3 1d bd bc c1 f5 8e bc f1 a8 99 3c 9d bd 33 bc
       -0.02308545 -0.017451169 0.018757315 -0.0109705
0000a0 2f 34 25 bc 04 99 22 bc 6d dd ac 3c 81 a2 0c bc
       -0.010083242 -0.009924177 0.021101678 -0.008583666
0000b0 5f 2e a4 bb 34 1a c5 3c 81 71 1f bc b4 64 7f 3c
       -0.0050104107 0.024060346 -0.009731651 0.015587974
0000c0 71 70 a2 bb ec ec a9 3c 8d 46 3f bc 98 c7 09 bc
       -0.0049572517 0.020742856 -0.011674535 -0.008409403
0000d0 39 cd c5 3c cf e8 03 bc f3 ca 18 bb 3e e3 ab 3c
       0.02414571 -0.008051111 -0.0023314327 0.020982381
0000e0 f9 a2 7f 3c b8 47 7a 3c 50 1a 30 bc 35 9b ae 3c
       0.015602821 0.015275888 -0.010748461 0.021314243
0000f0 cc ce cb 3c 5d fe d4 bb 62 67 e0 3a a2 da 31 bc
       0.024878882 -0.006500049 0.0017120654 -0.010855349

arith.constant1 f4 [32]
000000 6c a4 9d bc c4 e7 a6 bc 93 fb 8f bc 7a 54 96 3c
       -0.019243442 -0.020374186 -0.017576015 0.018350828
000010 4e af fd 3c d4 65 2d bc 6e bd 8d bc df 7e c3 bc
       0.03096738 -0.01058336 -0.017302241 -0.023864208
000020 fe d1 ab bc 2c d2 88 bc 07 81 06 3d 23 eb 5c bc
       -0.020974156 -0.01670178 0.032837894 -0.013483795
000030 00 4e 9b 3c cf c6 10 3d b5 be e4 3b 3c 83 ea bb
       0.018958092 0.03534585 0.006980742 -0.0071567576
000040 31 34 dc bc 59 bf 66 bc 1d a7 1c bc 9b 15 cb bc
       -0.026880356 -0.014083707 -0.009561327 -0.024790576
000050 5a d8 81 bc 98 87 9d bc 0e e7 9c bc 56 f4 c5 bc
       -0.015850235 -0.019229695 -0.019153144 -0.02416436
000060 d8 d9 95 bc 8d d8 f5 bc 87 70 0b 3d 7e aa 10 b8
       -0.018292353 -0.030010486 0.03404286 -3.449106e-05
000070 6e 5d 85 bc c4 36 11 3c 57 72 c9 bc 72 d6 0f bc
       -0.016279902 0.008863155 -0.024590654 -0.008779155

arith.constant2 f4 [16]
000000 44 82 1b 3d ac c9 3a 3c 65 07 ec 3c 42 34 00 bd
       0.037966028 0.011400621 0.02881212 -0.031299837
000010 b3 ba bb bb 0b 91 97 bc 81 1f cc 3b ab 3c 05 3b
       -0.0057290434 -0.018501779 0.0062293415 0.002033035
000020 35 7c 29 bc cb ad 04 bd 2c 08 bc bb 67 4e 5f bc
       -0.010344555 -0.032392304 -0.005738279 -0.013629532
000030 1b 2d 9a bc 0b c3 d4 3c bb 2a 80 bc 93 73 6f bc
       -0.018820336 0.02597191 -0.015645375 -0.014614957

arith.constant3 f4 [2]
000000 a1 29 d2 3c a2 29 d2 bc
       0.025654616 -0.025654618

arith.constant4 f4 [64, 3, 3, 32]
000000 98 83 ed bc be da 04 3e 2a 97 97 3d 12 cd db bc
       -0.028993413 0.12974069 0.07401879 -0.026831184
000010 a6 86 67 3d 39 4b 75 3c a9 12 60 3d af 0f 59 3c
       0.056524895 0.014971548 0.054705296 0.013248368
000020 1b 73 5c ba 8b 01 2b 3d 89 f8 2a bc 92 14 7b 3c
       -0.0008409486 0.04174952 -0.010435232 0.015324729
000030 f0 cd 97 3c 8b 6d 5a bc 86 03 a6 bd ea 03 14 bd
       0.018530816 -0.013331781 -0.08106141 -0.036136545
000040 b5 4d 1a bd 64 80 94 3d 68 26 4d bc a3 a8 ba 3d
       -0.037671763 0.07251051 -0.012521364 0.09114196
000050 1d 7b 4d bc e2 bb 9c 3d 57 b1 d5 bc 3c bf eb 3c
       -0.0125415595 0.07653023 -0.026085539 0.028777711
000060 8c 80 0c 38 87 89 c6 bc 3c 19 2e 3d 4a 3f 92 3d
       3.349832e-05 -0.0242355 0.042504534 0.07140978
000070 68 ae 92 3c bb 03 1d 3c 5c b9 7e 3d 0d 45 51 3d
       0.017905429 0.009583409 0.06218849 0.051091243
000080 fa 5e ab 3d 92 1a be 3d a9 ea 86 3a 9a 30 a3 3c
       0.08367725 0.09282412 0.0010293323 0.019920636
000090 bb 13 ca bd 83 06 01 bd c7 f2 0e 3d 6f d1 c9 3d
       -0.098670445 -0.03150035 0.0348995 0.098543994
0000a0 ac b5 a7 3c 75 c5 85 3d c2 6f 9a 3c 11 a1 97 3d
       0.02047237 0.065318026 0.018852118 0.07403768
0000b0 67 08 31 3c e2 94 84 3c b4 87 05 bd 0c ed 8b 3d
       0.010805226 0.016184274 -0.03260012 0.068323225
0000c0 13 74 f9 3d 05 3b da 3d 5e 4d 94 ba 53 22 d2 3d
       0.121803425 0.10655788 -0.0011314561 0.10260453
0000d0 b1 f4 c2 3d c8 96 2d 3d 4d 4c 3c 3d 88 e5 f0 3d
       0.095193274 0.042380124 0.045971204 0.117625296
0000e0 41 bc be bb 24 17 b0 3d 33 d5 3c 3d 4b ae 22 3d
       -0.0058207815 0.08598164 0.04610176 0.039717
0000f0 1d e1 8a 3d c6 c4 33 bd 8a 3f 63 bc 6a 72 44 3c
       0.06781218 -0.04388883 -0.013870129 0.011990169
000100 ef 34 32 bd f4 71 bb bb 9d e6 11 3d 20 a2 e5 3b
       -0.043507513 -0.0057203714 0.03562032 0.007007852
000110 36 fb 79 3d 59 3e c6 bb a5 f1 29 3d c3 7f b4 3d
       0.06103059 -0.006049913 0.041490216 0.08813431
000120 c0 04 27 3d c2 72 09 3d 7b b7 52 3d 85 50 54 bb
       0.040776014 0.033556707 0.05144451 -0.0032396626
000130 d8 14 56 3d fe b4 f9 3b 0c ce a4 bb 09 49 dd 3c
       0.052265972 0.007620453 -0.0050294455 0.027012365
000140 cd fe 02 bd 98 f1 e5 bb 36 42 bc bb ff 3b 1d 3d
       -0.03198128 -0.0070173256 -0.0057451976 0.038387295
000150 24 ea 05 3e 95 0c ab 3c 80 31 e2 3c 04 92 5a 3d
       0.13077599 0.020880023 0.027611494 0.053361908
000160 cb 2f cb 3d f5 19 92 bb 80 9d 30 3d f6 88 9b 3c
       0.09921225 -0.0044586607 0.043118954 0.018986207
000170 30 d4 a3 3d 30 e2 b8 bc db 39 a7 3c 9e 16 68 3c
       0.07999456 -0.022568792 0.02041333 0.014165549
000180 01 f4 b4 3c 81 4e 9b 3d 56 d3 c7 3d 1b 06 07 3d
       0.022089006 0.07583333 0.09757106 0.032964807
000190 0a c7 82 3d 5a 7c 90 3d 41 21 6b 3c ce ab 63 bd
       0.0638562 0.07054968 0.01435119 -0.055583768
0001a0 48 86 a6 bc 7d 8b e5 bc 0b 1b 37 bd d3 a0 0f bd
       -0.020327702 -0.028020615 -0.044703525 -0.035065483
0001b0 18 dc 8f bd bf 89 09 bd 87 93 26 bd ce 2f fd bc
       -0.070244014 -0.03357863 -0.040668037 -0.030906584
0001c0 df 6b e7 3c 5a 63 08 3e 03 8f d1 3c db cf 3e 3d
       0.02824968 0.1331915 0.025580889 0.046584945
0001d0 11 8c 80 3d 30 f9 09 3e 5b 2d d3 3d 77 74 a4 3c
       0.062767155 0.13473964 0.10311385 0.020075066
0001e0 b8 b3 ce 3d 55 dd 4d bd f6 22 62 3d 19 86 9c bb
       0.100928724 -0.050259907 0.055209123 -0.004776728
0001f0 91 06 50 3d d1 04 6c bb 6d 0e e8 3d c7 39 bc 3d
       0.050787512 -0.0036013613 0.113308765 0.09190708
000200 13 5f 9b 3d 1b e2 50 3d 18 47 05 3e 91 39 cb bc
       0.07586493 0.05099688 0.13015401 -0.024807723
000210 9a 1d ce 3c 2c 5d cd 3d a8 60 17 3e 28 7b 9e 3d
       0.0251606 0.10027537 0.14782965 0.07738334
000220 40 50 8c bc 8f a4 e2 bc 92 e5 58 bd fa 94 4f 3d
       -0.01712811 -0.027666358 -0.05295331 0.050679184
000230 03 71 0a bd 1e 01 4c bd 74 14 57 bd 21 6d 2b bd
       -0.033799183 -0.049805753 -0.05250974 -0.04185212
000240 fb 31 0d ba 9c b2 eb 3d 95 86 37 bd da f0 ba 3d
       -0.0005386171 0.115086764 -0.04480608 0.0912797
000250 b8 60 8f 3d 07 03 f2 3c 43 9f 03 3d 2a 7d 8b 3d
       0.070008695 0.02954246 0.032134306 0.068109825
000260 e7 e1 98 bc 41 b4 ed bc c2 57 3d bd 8a ba ca 3b
       -0.018662406 -0.029016616 -0.04622627 0.006186788
000270 d5 93 49 3d 8c ae 23 3d af f0 1c 3c 79 2a f0 bb
       0.04921325 0.039961383 0.009578868 -0.007329282
000280 9e 30 3f 3d 4d 81 14 3d 41 64 b7 bc b2 73 55 bd
       0.046677224 0.036256123 -0.022386672 -0.05211229
000290 9e 13 b8 bd 81 d5 72 3c db 4a a0 3d 40 40 66 bd
       -0.08988117 0.014821411 0.078267775 -0.056213617
0002a0 38 92 f1 3d 31 3a e9 3d 9c db 22 bd 72 b7 b4 bc
       0.11795467 0.11388052 -0.039760217 -0.02206013
0002b0 36 76 43 3d 17 31 82 bd 12 29 59 3d 6a 29 f3 bc
       0.047720157 -0.063570194 0.053017683 -0.029682834
0002c0 e9 94 01 3e 79 21 bc 3d 73 1d ab 3c 03 82 dd 3d
       0.12654461 0.09186072 0.020888066 0.108158134
0002d0 82 0c 15 3e ee 94 bf 3b 10 4b 9a 3c 1d 5a 65 ba
       0.14555553 0.005846611 0.01883462 -0.00087490847
0002e0 d9 93 04 3e f9 53 59 3d 45 7c 8c bd 4c fb a9 3d
       0.12947024 0.0530586 -0.0685964 0.08299884
0002f0 db 28 71 3d 34 24 9f 3d 6a a3 02 3e d6 d2 0a 3d
       0.058876853 0.07770577 0.1275765 0.033892475
000300 21 d5 e9 3d 1a 83 eb 3d 96 26 1f bc 7d 55 88 bd
       0.11417604 0.11499615 -0.009713789 -0.066569306
000310 2b f5 2b bc 95 55 5e 3d df 29 4e 3d bf 0e ea 3c
       -0.010495464 0.054280836 0.0503329 0.028571485
000320 89 86 f2 3d c5 c9 cd 3c 0d bd 9a bd 89 ba 44 bc
       0.11842067 0.025120625 -0.0755559 -0.012007364
000330 b2 60 14 3d ab 43 09 bd 36 46 af bd c8 0d 52 bd
       0.03622503 -0.0335118 -0.085583135 -0.051282674
000340 68 15 f7 bc b1 78 04 3e 70 18 87 3d d5 63 27 bd
       -0.030161574 0.12936665 0.06596458 -0.04086669
000350 78 a6 6a 3d de 40 34 3c a7 c0 bc 3d 14 8b 02 bc
       0.057287663 0.011001794 0.09216433 -0.007967729
000360 51 13 3e 3d 79 10 8f 3c 8f a3 9d bc fd bd 9f 3d
       0.04640514 0.01746391 -0.01924303 0.07799909
000370 eb e6 bc 3d 55 3e 9d 3d cd 21 ce bc 08 32 e1 3d
       0.092237316 0.076779045 -0.025162602 0.10995871
000380 63 fc 33 3c e0 5c 15 3d 02 a8 f7 3d 13 ff 36 bc
       0.010985467 0.036465526 0.12092592 -0.011169213
000390 55 a6 3f bd c4 ab 5b bc da 70 7d 3b 27 1e 98 bb
       -0.046789486 -0.013407651 0.0038672 -0.0046422663
0003a0 9a 9b 53 bc 89 e4 ec 3d d1 bb 8f bd 27 89 80 3d
       -0.012915516 0.11567027 -0.07018245 0.0627616
0003b0 10 be 91 3d 62 ac f3 bc 49 9b 1b bd 0a 0c a1 3d
       0.0711633 -0.029745284 -0.03798989 0.078636244
0003c0 db dd bb 3d 89 5f ec 3d 73 8c 91 bd 47 75 91 3c
       0.09173175 0.115416594 -0.07106867 0.017756118
0003d0 6f 7c c5 3d 31 4f 7b 3d 9e 6b b2 bc 11 c2 90 3d
       0.096428744 0.06135482 -0.021779831 0.07068265
0003e0 99 3a d7 3d 9a cc 0c 3d a6 1f 16 bd 68 ed 89 bd
       0.105092235 0.03437481 -0.036651276 -0.06734735
0003f0 e9 a5 98 3d 3d 49 67 3d d9 19 7b 3d 8f 95 64 3d
       0.0745352 0.05646633 0.061303947 0.055806693

arith.constant5 f4 [32, 3, 3, 16]
000000 88 5a 92 bd 27 17 82 bd 10 6d 21 3d db 5a a5 bd
       -0.07146174 -0.06352072 0.03941065 -0.0807397
000010 d2 c6 71 bc 43 d4 3e bd b8 67 aa bd 5f d0 b0 bc
       -0.014756875 -0.046589147 -0.08320564 -0.021583734
000020 37 68 a5 3c 4d 41 15 3d dd e4 b5 3d ad 12 f9 3d
       0.020191295 0.03643923 0.08881543 0.12161765
000030 06 ad 0c bd b3 8f 61 3d 57 fc 24 3d 8a cd ba 3d
       -0.034344696 0.055068683 0.040279713 0.09121235
000040 98 24 f4 bd f1 4f 11 bb 42 bd 83 3b 18 9d da bd
       -0.11921042 -0.0022172893 0.004020364 -0.106744945
000050 ea 51 e0 3d b2 63 fd 3d cc 4f 3f 3d 7c 44 1e 3d
       0.10953124 0.12372531 0.04670696 0.03863953
000060 e4 4e ed bc 02 d0 9e 3a eb e6 c5 3d f5 5f 75 bd
       -0.028968282 0.0012116435 0.09663185 -0.059905965
000070 f3 a5 e3 3c 60 1c 7e 3d 11 bf b9 3d f3 20 bc 3d
       0.027789092 0.06203878 0.09069646 0.09185972
000080 e8 46 a7 bc c4 26 ad bd 95 69 af 3c e0 7e f8 3d
       -0.020419553 -0.084546596 0.02141265 0.121335745
000090 48 10 9b 3d 39 8a 0c 3e b5 3c 04 bd 0e 06 4b 3d
       0.07571465 0.13724603 -0.032284457 0.04956632
0000a0 52 86 4b 3e 27 a4 3b 3d f2 7a 47 3d 09 88 77 3d
       0.19875458 0.045810845 0.048701234 0.060432468
0000b0 80 89 04 3e 3f 8c 78 bd 93 d5 84 bd cf 21 28 3d
       0.12943077 -0.060680624 -0.064860485 0.041047867
0000c0 ed 02 21 3d 7c 69 f8 3d 46 d3 82 bd 68 b1 c8 3d
       0.03930943 0.121294945 -0.063879535 0.097994626
0000d0 cc 97 de bd e9 ae cc ba f2 4f 16 3d aa 33 7d 3d
       -0.10868797 -0.0015616092 0.036697336 0.06181685
0000e0 c0 ce 15 3d bd 5a e9 bc 46 ca 84 3d d3 43 47 3c
       0.036574125 -0.02848565 0.06483893 0.012162167
0000f0 53 2f 38 3e da d4 8f bd ab 01 00 bd dd 2d 8a 3d
       0.17986803 -0.0702302 -0.03125159 0.06747029
000100 31 5d a9 3d c1 b6 a8 bd 0e 9d e5 bd 0a 50 b3 bd
       0.08269728 -0.082379825 -0.112115964 -0.087555006
000110 4e 29 f1 bc 4f 35 08 3e 2e 03 b7 3c 9f 0b 89 3b
       -0.02943864 0.13301586 0.022340383 0.0041822935
000120 ba b0 37 3e 0f d5 c9 3d 3c 02 5f bd 3f 6a 8d 3d
       0.1793851 0.09855091 -0.05444549 0.069050305
000130 ed 41 57 3d fa b4 53 3d a9 24 87 bd 34 4b 89 3d
       0.052553106 0.051686265 -0.06598789 0.06703797
000140 fc c5 9d ba 10 32 60 3c a6 6c 78 bd 8a 5f fa 3d
       -0.0012037153 0.013683811 -0.06065049 0.12225254
000150 19 8d b5 3d b1 67 87 bc b5 17 84 bd 45 bf 79 bb
       0.08864803 -0.016528936 -0.06449834 -0.003810839
000160 03 a9 ff 3d af 72 4c bd 06 b3 eb bd 67 91 95 3b
       0.12483408 -0.04991406 -0.115087554 0.0045644525
000170 88 db 40 3d 15 59 46 bc 24 d1 9f bd a7 0d 6b 3c
       0.04708436 -0.0121062 -0.07803562 0.014346517
000180 11 99 4f 3d bb 1e 61 3d c2 a2 d7 bd b6 f9 84 bd
       0.050683085 0.054960947 -0.105290905 -0.06492941
000190 a6 53 4f bd 20 f4 33 3e 7d c7 c4 bd 39 a6 3d 3d
       -0.050616883 0.17573595 -0.09608362 0.0463011
0001a0 a5 78 fc 3d 9e 57 07 bd dc 99 ee 3c 4e b2 dd 3d
       0.123276986 -0.033042543 0.0291261 0.108250245
0001b0 87 46 28 3e 30 60 77 bd 9c 79 2d bd b9 99 81 3d
       0.16433154 -0.060394466 -0.042352304 0.063281484
0001c0 19 a5 ff 3c dc d3 a1 bc e1 48 83 bd b3 75 2b 3d
       0.031206654 -0.019754343 -0.06410385 0.041860294
0001d0 13 12 1c 3d 1e 90 95 3d 28 e1 ce bd 90 0b 34 3d
       0.038103174 0.07302879 -0.10101539 0.04395634
0001e0 61 5d 9f 3d 32 e8 19 bd c7 3c c4 3d 40 56 d8 3d
       0.077814825 -0.037574954 0.09581905 0.10563326
0001f0 8a 02 fb 3d 3d 1a b6 3c 3b a6 0a 3d 3f ca 10 3e
       0.12256344 0.022229308 0.033849936 0.14139651
000200 2f 5d de 3c 04 93 c7 bc cf cd 41 bd 73 ac f5 3b
       0.027144043 -0.024362095 -0.047315415 0.007497364
000210 03 05 90 3d 58 af c6 3d e9 42 fe bd 2f e8 15 3e
       0.07032206 0.09701413 -0.12415106 0.14639352
000220 eb c9 c6 bc 00 4a 80 3d 81 8d 6f 3d a2 59 bf bd
       -0.024266204 0.062641144 0.058484558 -0.09343268
000230 e6 40 1d 3d 8d e2 f0 bb b6 de 52 3d e7 da 83 bd
       0.03839197 -0.0073512257 0.051481925 -0.06438237
000240 41 35 c7 bd b6 d3 e4 bc a3 65 85 bd 54 e2 3d 3d
       -0.09726954 -0.027932983 -0.06513526 0.04635842
000250 09 ad dc bd 26 3c 90 3d ff 28 9f 3c fc ae af 3c
       -0.10775191 0.070427224 0.019428728 0.021445744
000260 b1 68 27 3e f0 cf 81 3d 67 e3 79 bd 81 33 6c 3d
       0.1634853 0.06338489 -0.061007883 0.057666305
000270 a7 db d3 bc 5e b4 45 3d 3e 7e 96 bd 22 65 a7 bd
       -0.025861574 0.048267715 -0.073482975 -0.081735864
000280 5b 55 41 3d e4 1d 4a 3d 6d 58 ae 3d c7 9c 91 3d
       0.047200542 0.049344912 0.0851296 0.07109981
000290 66 2d 86 3d 35 b1 2e 3e 9b ee b0 3c d5 c7 fc 3d
       0.06551628 0.17059787 0.021598151 0.123428024
0002a0 bd d0 86 bc 98 c5 bb bc 15 a9 fa 3c 4a ec ab 3d
       -0.016456956 -0.022921368 0.030598203 0.08394678
0002b0 0e 2e 9c 3d 7b 47 8d 3d 63 da 27 3d d1 f7 0e bd
       0.07625972 0.068983994 0.040979754 -0.034904305
0002c0 7d 5d 9c bd e2 91 06 ba 6b 8d d5 3d 25 73 9b 3d
       -0.07635019 -0.00051334326 0.10427364 0.075903215
0002d0 8a 87 f1 bd 32 4a c8 3c f4 9e c8 3c 8b e2 03 bd
       -0.1179343 0.024449442 0.024489857 -0.03219847
0002e0 b0 55 b9 39 d7 e5 ad bd 55 c7 b5 3c 1d fe 8d bd
       0.00035349792 -0.08491104 0.022189775 -0.06933234
0002f0 27 3d 36 3e b8 9e a1 3d cf fe eb bc 7e 0f 0a 3e
       0.17796765 0.07891601 -0.028808026 0.13482472
000300 cc df a8 3d 4d fa 51 bc c1 2d b5 bd 37 01 4a bd
       0.08245811 -0.012816024 -0.088466175 -0.049317565
000310 b5 ee 25 3d 46 46 94 bc db bd ef bd ba 15 d8 3d
       0.040510852 -0.018099915 -0.11706134 0.10551019
000320 dc ae 08 3e 08 42 da 3c f7 fb 80 bd 2c ff 4d bc
       0.13347954 0.026642814 -0.062980585 -0.012573045
000330 12 b3 28 3e 24 92 bb bd c7 f5 38 bd 84 98 44 3c
       0.1647456 -0.091587335 -0.045156267 0.011999253
000340 29 5f ac bd 38 e2 aa 3d 95 6a 06 be 2a 25 b7 3d
       -0.08416588 0.08343929 -0.13126595 0.08942635
000350 db cc 8e 3d 01 51 25 3e fb d2 86 bb 06 64 2f 3e
       0.06972667 0.16144182 -0.0041145063 0.17128
000360 67 3f 1d 3e f2 b8 cc 3d 95 e2 d7 3d 4e 07 8b 3d
       0.15356217 0.09996213 0.10541264 0.06788503
000370 27 ef a0 3d 5c 2b 0a bd d9 21 ad 3d 03 d7 60 bd
       0.07858115 -0.033732757 0.084537216 -0.05489255
000380 f1 69 a1 bc 87 e3 9e 3d 53 c5 09 bd 61 16 be 3d
       -0.019703837 0.07758241 -0.03363545 0.09281612
000390 f1 d5 5c 3d 5c 26 82 bd 23 b9 8f bd fe c4 ad 3d
       0.053914968 -0.06354973 -0.07017734 0.08484839
0003a0 2c d9 ac 3d 48 3f 88 bc 74 c4 82 bd 75 42 e0 3d
       0.0843986 -0.016631737 -0.06385127 0.10950176
0003b0 24 22 26 bd 68 a7 41 bd a8 8b 85 bd 6b 1d c0 3d
       -0.040559903 -0.04727879 -0.06520778 0.09380611
0003c0 b0 3d 16 bd 84 69 80 3d 97 d5 06 be ff cf ee 3d
       -0.036679924 0.062701255 -0.13167416 0.11660766
0003d0 0d b0 75 3d a9 c6 06 3d f6 1c 8b 3d e1 d0 06 3d
       0.05998235 0.0329043 0.06792633 0.032914046
0003e0 6e 6f f6 3d 09 7f 75 3d a5 44 10 3d f5 4f b4 3c
       0.12032972 0.059935603 0.035221715 0.022010783
0003f0 32 d0 2c 3e 9c 11 32 bc ea 8a b1 bc 41 18 f9 3d
       0.16876295 -0.010868456 -0.021672685 0.12162829

arith.constant6 f4 [2, 64]
000000 5c d6 04 bd 13 c1 65 be aa 91 b2 be 90 16 a2 be
       -0.03243099 -0.22436933 -0.34876758 -0.3165784
000010 29 7a f2 bc 08 12 04 3c 44 7a a8 bd 40 d3 82 be
       -0.029599266 0.00806094 -0.08226445 -0.25551796
000020 93 2b 28 be ef 47 af be 1d 6c 53 3e 02 73 27 3e
       -0.16422872 -0.34234568 0.2064671 0.16352466
000030 63 32 e3 bd 6b 15 30 be 24 b2 b0 3d df ce 93 be
       -0.11093595 -0.1719567 0.08627728 -0.28868768
000040 f5 94 a2 3e 84 10 24 be 6f 0a 75 3e f6 bc 8c be
       0.3175427 -0.16021925 0.23929761 -0.27487916
000050 ad 41 04 3e ec 4d 5d be af c4 23 3e b1 fe a3 bd
       0.12915678 -0.21611756 0.15992998 -0.08007563
000060 01 5e 66 be 8b a7 de bd ee a9 eb 3a 12 fd 7b 3e
       -0.22496797 -0.108718 0.001797972 0.24608257
000070 40 c0 9c be 07 56 53 3e 29 0b 9e be 50 c5 2f be
       -0.30615425 0.20638286 -0.3086789 -0.17165112
000080 37 21 9b 3e ec 35 99 3e 57 0a 12 3e d2 43 0f 3d
       0.30298778 0.29923952 0.14261757 0.034976788
000090 6c 61 39 3e 01 61 8d be 1a a3 08 bd f0 e6 84 3e
       0.1810357 -0.2761307 -0.03335867 0.2595744
0000a0 fc 1d 72 3d 7f 74 89 be 51 36 89 3e 18 7d 78 be
       0.059110627 -0.26846692 0.26799253 -0.2426647
0000b0 46 c5 7a be 7f dd 2b 3e 90 64 b8 be a3 cb 9b 3e
       -0.24489316 0.16783713 -0.36014223 0.304288
0000c0 97 47 4c be 01 01 f9 3c 09 73 3d be 3a 2f 8a 3d
       -0.19949184 0.030395987 -0.18500914 0.06747289
0000d0 dd b8 41 3e e9 01 be bd 94 c7 b4 be 91 a8 1b 3e
       0.18918176 -0.09277708 -0.35308516 0.15201022
0000e0 84 ca 83 3e b4 a2 86 3b ea 76 a2 3d 27 b4 24 3e
       0.25740445 0.004108751 0.07932837 0.16084348
0000f0 35 71 00 3e 15 ef 92 be de af 35 3d 54 e4 2e bd
       0.12543185 -0.2869803 0.044357173 -0.04269822
000100 75 1a 0b 3e 1e 45 fd bc 6d e5 60 3e 89 40 3d 3e
       0.13584311 -0.030916747 0.21962519 0.1848165
000110 5b 8c c8 bd 2a 30 f8 3d 03 02 78 be e1 16 a8 be
       -0.09792396 0.121185616 -0.24219517 -0.32829955
000120 c2 7e 91 3e 7c 50 25 be 7d b8 87 be 1c c0 6b bd
       0.2841702 -0.16143984 -0.2650794 -0.057556257
000130 2b a4 4f be 5d 05 a4 3e 27 ac 5a be 81 ea 5b 3e
       -0.20277469 0.32035342 -0.21354733 0.21476175
000140 cc f0 41 3e 08 8e c3 3c f6 2b c7 3c 77 5b 80 bd
       0.18939513 0.023871437 0.024312954 -0.062674455
000150 8a 61 73 bb ed 1c 83 be c9 13 ad 3e da 17 60 3e
       -0.0037136995 -0.25608006 0.33804157 0.21884099
000160 43 13 9a be 93 eb c7 3e e4 08 52 be 7c 6e 08 be
       -0.3009282 0.39046916 -0.20511204 -0.13323396
000170 d6 e2 d1 3d b6 ba 14 be 4a a1 6a 3e 7c e4 73 3e
       0.10248344 -0.1452435 0.2291309 0.23817629
000180 a6 a5 dd 3d 64 15 2a 3e b2 1f 91 bb ad 3a 8f be
       0.108226106 0.16609722 -0.004428827 -0.27974454
000190 0f c6 9f 3e da c4 c7 3d 5b 11 60 be d7 32 fd bc
       0.31205794 0.09754343 -0.2188162 -0.030908031
0001a0 18 10 90 3d 64 7f 6b bd b1 ac 08 be 0a 95 a6 3e
       0.0703432 -0.057494536 -0.13347127 0.32535583
0001b0 7f 9a 62 bd 31 37 ba 3d c5 13 1e 3e 93 ea 23 3e
       -0.05532312 0.09092558 0.15437229 0.16007452
0001c0 bd 03 30 3e 7f 40 26 be 41 89 9a 3e c2 e4 39 3e
       0.17188926 -0.16235541 0.3018284 0.1815367
0001d0 0b 67 11 be 95 c6 1b 3e 5b 7f 3d 3d fc 2e ff bd
       -0.14199464 0.15212472 0.046264034 -0.124601334
0001e0 8e 87 97 bd a5 fd 72 be 0a b2 1c 3d bf de c6 bc
       -0.07398902 -0.2372957 0.03825573 -0.024276135
0001f0 70 13 a7 bd 15 d9 6f 3d 9f 99 81 be b9 bf 96 3e
       -0.08158004 0.058556635 -0.25312516 0.29443148

functional_1_1/conv2d_1/Relu;functional_1_1/conv2d_1/BiasAdd;functional_1_1/conv2d_1/convolution;functional_1_1/conv2d_1/Squeeze f4 [16, 3, 3, 3]
000000 b7 ba 00 ba 57 06 13 3a a6 ba c5 b8 20 ad 26 ba
       -0.0004910635 0.00056085497 -9.428458e-05 -0.0006358195
000010 a9 23 d4 39 a0 11 79 b7 b3 42 3d ba 3b c4 1c 38
       0.0004046236 -1.484566e-05 -0.0007219717 3.7376052e-05
000020 7a 3f 24 ba 89 8f 84 b9 02 26 e1 39 bc cd 26 3a
       -0.0006265562 -0.00025283944 0.00042943662 0.0006363054
000030 4e 6c fb 39 24 83 56 39 39 d9 4d b9 10 42 b4 39
       0.00047955144 0.00020457484 -0.00019631245 0.00034381496
000040 be 32 a5 39 a0 91 e7 b9 47 e7 1e b9 37 a9 02 b9
       0.00031509058 -0.00044168252 -0.00015154212 -0.00012460804
000050 c6 7f 2b 38 0e b7 5d b9 83 fa fb 38 a5 8c c3 b8
       4.0888575e-05 -0.00021144396 0.00012015274 -9.324522e-05
000060 de 72 9c b9 a6 29 b3 38 50 7c 41 3a 48 f0 95 39
       -0.0002984022 8.543143e-05 0.000738089 0.00028598518
000070 c2 f1 c8 b9 ea 97 27 3a c0 9a f4 b9 1b 24 7c b9
       -0.00038327096 0.00063931814 -0.00046654604 -0.00024046043
000080 05 51 fa 39 4b 48 cb b9 15 61 62 b9 3a 65 bc b8
       0.0004774408 -0.0003877304 -0.00021589205 -8.9833935e-05
000090 a5 59 45 ba 34 55 24 3a b6 24 f3 b8 a8 76 75 39
       -0.00075283117 0.00062688 -0.00011593981 0.00023409224
0000a0 7e 2c b0 39 70 9a 12 ba d9 06 30 ba 90 63 e9 39
       0.00033602485 -0.0005592471 -0.00067148876 0.00044515403
0000b0 19 42 4c 39 1a 24 0d 3a 9b 72 03 3a 93 64 0b b9
       0.0001947958 0.00053841027 0.0005014331 -0.0001329354
0000c0 5f c0 1b 3a 15 3c 2e ba 50 f1 25 ba a9 94 48 b9
       0.0005941446 -0.0006646526 -0.0006330209 -0.00019128867
0000d0 18 95 e7 b9 b0 5c ca 39 d9 ec 48 b9 fe 39 e2 b9
       -0.00044170837 0.000385975 -0.00019161719 -0.00043149287
0000e0 3e 73 2c 3a 7c 04 55 b8 5b 63 2f 39 3c d1 20 ba
       0.0006578452 -5.0787334e-05 0.00016726313 -0.0006134694
0000f0 1d db 27 ba cb 70 ed b6 41 74 4a 3a d7 c4 44 ba
       -0.0006403195 -7.0762812e-06 0.00077230117 -0.0007506138
000100 3a c2 83 39 9d e0 1e 3a 30 a1 3b 3a ad ee 06 3a
       0.00025130977 0.00060606917 0.00071575027 0.000514726
000110 a7 62 44 3a fd e4 35 3a 77 ac 15 3a f4 8f ee b8
       0.0007491507 0.0006938724 0.0005709598 -0.00011375538
000120 58 9e 8e b9 8d 2c 92 b9 34 00 44 b8 a4 2e a4 b9
       -0.00027202326 -0.00027880483 -4.673023e-05 -0.00031315268
000130 45 d4 28 ba 07 10 95 39 84 e1 14 b9 31 4a f5 b8
       -0.0006440322 0.00028431436 -0.00014198391 -0.000116963296
000140 45 be 7d b9 00 30 76 39 48 88 42 ba 74 f3 31 ba
       -0.00024198841 0.0002347827 -0.000742082 -0.00067882915
000150 90 07 c5 39 80 f5 48 ba e9 8d 2b ba 2c f8 1f b8
       0.00037580403 -0.0007665977 -0.00065442786 -3.8139682e-05
000160 e9 af cc b8 d6 58 52 39 9d ef 12 b9 e8 18 0c 3a
       -9.760244e-05 0.00020060255 -0.00014012908 0.00053442875
000170 62 ce 39 38 77 14 02 b9 05 1e be b8 b4 a2 1a 3a
       4.4299646e-05 -0.0001240539 -9.0654976e-05 0.00058988784
000180 82 71 12 39 4a 11 8a 39 35 02 80 39 4f 43 19 3a
       0.0001396593 0.00026334292 0.00024415707 0.00058465166
000190 c8 20 29 b7 96 5f 4e 37 b9 9a 56 39 35 8c 01 b9
       -1.0080817e-05 1.2300812e-05 0.00020466269 -0.0001235463
0001a0 1d 9b 62 b8 be 3b af 38 e4 92 53 ba 92 a1 24 3a
       -5.402706e-05 8.355778e-05 -0.00080708996 0.00062801794
0001b0 6a 84 90 39 92 6d ea b9 6f c4 1c ba cf c0 3c 38
       0.00027564476 -0.00044713594 -0.00059801986 4.500226e-05
0001c0 87 e5 de 39 d3 02 74 b9 5b 8b 43 ba 42 f8 3f 39
       0.0004251415 -0.00023270705 -0.0007459425 0.00018307663
0001d0 b5 05 12 ba 38 7f f2 39 53 a3 d0 39 4d e5 a1 b9
       -0.00055703084 0.00046252622 0.00039794538 -0.00030879155
0001e0 eb 06 98 b9 13 36 c7 39 3e 59 12 39 d1 88 a3 39
       -0.00028996854 0.00037996526 0.0001395689 0.0003119172
0001f0 35 6e fa 38 71 af b8 39 99 e2 41 ba d4 18 e1 38
       0.000119414566 0.0003522593 -0.00073961314 0.00010733461
000200 ea a0 82 39 49 94 28 ba 14 8a e7 b9 70 18 cc 39
       0.00024915423 -0.00064307876 -0.0004416263 0.0003892812
000210 b7 ac f3 39 cf 23 b1 b9 90 56 6d b9 1a d9 c6 b9
       0.00046477254 -0.0003378675 -0.00022634328 -0.00037927256
000220 99 9e 06 ba 1a ed 81 39 cd 58 23 3a 07 ee 91 39
       -0.0005135327 0.00024781452 0.0006231189 0.000278339
000230 b8 eb 12 ba d6 8c 3a 3a f7 10 fd 39 a0 86 a8 38
       -0.0005604583 0.0007116323 0.0004826856 8.03594e-05
000240 3d 73 3b 3a 87 95 3e b9 7b 87 98 b8 7a 9d 49 b9
       0.0007150656 -0.00018175515 -7.27316e-05 -0.00019227518
000250 f2 e4 52 b9 4f 25 da 38 6e 11 31 39 a1 e4 f3 b9
       -0.0002011245 0.00010401999 0.00016886528 -0.00046518914
000260 36 e0 8c b9 2e 34 04 b9 91 c9 8b b9 07 4d a6 38
       -0.0002686993 -0.0001260794 -0.00026662325 7.929844e-05
000270 db be b4 b7 d8 0a 6f b9 19 b0 3e ba 96 b6 9f 39
       -2.1546546e-05 -0.00022796856 -0.00072741654 0.0003046288
000280 ab 7f 06 38 2f a2 7f 37 3c 23 e5 39 42 ed d4 b9
       3.206699e-05 1.5236946e-05 0.00043704535 -0.00040612562
000290 ad a6 d8 b9 48 a7 38 ba 6b ea 94 b7 df 53 ac b9
       -0.00041322914 -0.000704397 -1.7752134e-05 -0.00032868885
0002a0 5b 57 eb b9 f3 cd 12 ba 6c 32 e2 b9 36 39 2d 39
       -0.00044887778 -0.0005600147 -0.00043143646 0.00016519878
0002b0 40 ad 42 3a f0 cd 1e 3a 02 40 f5 b9 0e 10 12 3a
       0.0007426329 0.0006057909 -0.0004677773 0.00055718503
0002c0 cf e7 0b b9 10 3e 93 38 df c5 d6 39 73 d1 18 ba
       -0.00013342428 7.021066e-05 0.00040964686 -0.000582955
0002d0 ac 88 79 39 1f d5 e3 b9 d6 f6 5f b7 3a f0 5b 39
       0.00023797405 -0.00043455602 -1.3349307e-05 0.00020974959
0002e0 cd 69 ce 37 15 7e 28 3a 2d c7 36 39 ca 82 97 b9
       2.4606381e-05 0.0006427479 0.00017431071 -0.0002889841
0002f0 4b d7 2c ba ec f8 2a 39 39 6d 95 39 2a 94 f3 b8
       -0.00065933604 0.00016305194 0.00028500872 -0.00011614741
000300 61 e7 31 3a 1e cb 49 3a cd 48 04 ba 04 47 84 b9
       0.00067864923 0.00076978083 -0.00050462486 -0.00025229913
000310 de ba f2 b8 87 6b 9b 38 11 7a 3a b8 38 b9 ed b9
       -0.00011574266 7.4110045e-05 -4.445954e-05 -0.0004534216
000320 a5 62 1c ba ca 93 2e 3a 5d 60 f0 39 6c 5f 81 b9
       -0.0005965627 0.00066595955 0.00045848163 -0.00024675892
000330 97 25 0a b9 27 f2 71 b9 d7 ea 28 ba 37 b2 0d 3a
       -0.00013174709 -0.0002307376 -0.0006443685 0.0005405279
000340 fc ef 08 ba be 49 2e ba 78 03 51 3a 8e 82 40 b9
       -0.0005223749 -0.00066485617 0.0007973234 -0.00018359182
000350 bc 9b 92 b9 8f b9 9b 39 69 23 86 b8 b1 a6 48 38
       -0.0002796332 0.00029702156 -6.3962136e-05 4.783896e-05
000360 e1 9f 0d 39 97 73 cd b9 d6 6b cc b9 6f 8e c7 39
       0.00013506367 -0.00039186768 -0.00038990256 0.0003806236
000370 0a 38 f4 b9 19 42 c1 39 5e 27 06 ba c3 24 19 ba
       -0.0004658106 0.00036861075 -0.00051175605 -0.0005841965
000380 be 6d 1b 3a 3e e5 49 3a 4b 44 58 b9 b2 52 dc b8
       0.00059291336 0.0007701701 -0.00020624806 -0.00010505821
000390 43 ea 57 39 96 7f 0c ba 80 f3 27 ba 2b 94 32 3a
       0.00020591267 -0.0005359588 -0.0006406829 0.000681224
0003a0 2a d7 c4 b9 f0 d7 36 3a b1 02 22 b9 06 f6 27 3a
       -0.00037544343 0.0006974926 -0.00015450527 0.0006407205
0003b0 5c 15 ef 39 05 93 77 39 02 39 f3 b8 25 70 1d ba
       0.00045601546 0.00023610525 -0.000115977615 -0.00060057855
0003c0 59 dc 0f ba 5b bd d7 b8 19 40 33 39 75 bc 0d 3a
       -0.00054878514 -0.00010287269 0.00017094649 0.00054068054
0003d0 05 2d c5 39 23 4f 88 39 0c 5e 38 3a d3 9e bd 39
       0.0003760831 0.00025998903 0.0007033057 0.00036167222
0003e0 6d 89 3a ba 49 52 38 3a 1b 49 52 ba c4 9e 80 39
       -0.0007115815 0.00070313044 -0.0008021758 0.00024532352
0003f0 4a 48 b6 39 02 19 bf 39 16 e5 3a b9 63 25 28 ba
       0.00034767605 0.0003644899 -0.00017823683 -0.00064142625
